…
model.add(Dropout(dropout_fraction))

# Output layer
model.add(Dense(1))
Compiling the LSTM RNN Model
We have compiled the model, using the adam optimizer, as loss function, we will use mean_square_error since the value we want to predict is continuous.

# Compile the model
model.compile(optimizer="adam", loss="mean_squared_error")
# Summarize the model
model.summary()
Model: "sequential"
_________________________________________________________________
Layer (type)                 Output Shape              Param #   
=================================================================
lstm (LSTM)                  (None, 9, 9)              396       
_________________________________________________________________
dropout (Dropout)            (None, 9, 9)              0         
_________________________________________________________________
lstm_1 (LSTM)                (None, 9, 9)              684       
_________________________________________________________________
dropout_1 (Dropout)          (None, 9, 9)              0         
_________________________________________________________________
lstm_2 (LSTM)                (None, 9)                 684       
_________________________________________________________________
dropout_2 (Dropout)          (None, 9)                 0         
_________________________________________________________________
dense (Dense)                (None, 1)                 10        
=================================================================
Total params: 1,774
Trainable params: 1,774
Non-trainable params: 0
_________________________________________________________________
Training the Model
Once the model is defined, we train (fit) the model using 10 epochs. Since we are working with time-series data, it's important to set shuffle=False since it's necessary to keep the sequential order of the data.
…
